assets/activity_model.tflite (tflite, 114336 bytes, 12 tensors)

sequential/dense_1/MatMul f4 [6, 64]
-0.1371316 -0.08338436 -0.124828145 0.18544811 -0.31977373 -0.47611868 -0.125235 0.14132911
0.1734347 0.08798371 -0.22275388 0.22070274 0.10617761 -0.24526307 0.05168246 0.08317266
-0.38847044 -0.21967264 -0.014687118 -0.20354165 -0.10899811 0.1724078 0.24439642 -0.07754572
0.2814923 0.08148957 -0.060749207 0.21457088 -0.2351039 -0.05931158 0.103539854 -0.18727061
0.1767012 -0.0753048 0.020470008 -0.21795055 0.10379502 0.1405249 -0.046593003 -0.07249974
0.194719 0.20472291 0.03750964 -0.24772513 -0.10563429 -0.1815476 -0.20304924 -0.20868519
-0.05700624 0.12889494 -0.31992856 0.12808377 0.03663559 0.0979749 -0.019976564 0.0896463
0.098784074 -0.1948261 -0.13523497 0.23430139 0.105496824 -0.116583444 0.112683244 -0.2301475
-0.18489291 -0.027055869 -0.24387577 -0.020276977 -0.21268937 -0.43696013 0.047651045 -0.0615148
-0.056171864 0.22383066 0.16841888 -0.15551908 0.15523638 -0.03929782 -0.23947383 0.09016635
-0.3092484 -0.14498053 -0.22460923 0.31033227 -0.07516771 -0.1688876 -0.14487521 -0.05391793
0.013416514 -0.11865153 -0.30623057 0.0742022 -0.11580644 0.13224564 0.12973762 -0.13689215
0.11800272 -0.12730129 -0.09425764 -0.27596548 0.13620524 -0.014615678 -0.19733505 0.13616322
0.10082686 0.20227449 -0.034615744 0.24785112 -0.07327962 0.12884258 0.029933874 0.0037462732
-0.046806637 -0.0280036 -0.23019515 -0.068312876 0.16096663 -0.16335258 -0.02128234 -0.13193662
-0.1462985 0.20795953 -0.18512343 0.00058685936 -0.19181249 -0.268745 0.16788672 -0.39671564
-0.1648704 -0.12705338 0.2029175 -0.03572364 0.032190416 0.28083608 -0.07440059 0.078454286
-0.14136344 0.09378616 -0.033450298 0.019684272 0.09293388 -0.05548042 -0.23943584 -0.4629083
0.24324237 -0.21564847 -0.20736904 0.012283036 -0.1669842 -0.16793117 -0.03789246 0.1199934
0.2205253 -0.14203161 -0.08168 -0.26298216 -0.25858912 -0.1135929 0.11651184 -0.13230869
0.16851239 -0.09720024 -0.1570136 -0.03832825 -0.2633902 -0.1240424 0.046682328 -0.13935238
0.035043065 -0.024920112 -0.07251089 0.13374346 -0.13194174 -0.2579349 -0.024849312 0.18594679
-0.13701381 0.07468207 0.14577165 -0.05356621 -0.037576407 0.027879098 -0.17699769 0.1694724
0.037283104 -0.24087478 0.0042531495 0.037318002 -0.16738309 0.03792041 -0.3104962 0.033980303
-0.05178997 -0.12737095 -0.078970715 -0.020862784 -0.055939723 0.24581791 -0.21477348 0.16286944
-0.09249812 0.1107522 0.082435004 0.043037295 -0.05390513 0.1382316 -0.13858387 -0.4244225
0.23708984 -0.019661658 -0.20590457 0.058457907 -0.058108043 0.17518698 0.09637466 -0.34553745
0.13888083 -0.18717605 0.13597871 -0.16929576 -0.21415463 -0.15358098 0.119924605 -0.17313696
-0.001225816 -0.13082989 -0.106991924 0.18340917 -0.14532492 0.16900879 -0.04099789 -0.121166095
-0.09458939 -0.079195954 -0.015660807 0.03681373 -0.088816136 -0.26621598 -0.043962695 0.2202057
-0.071696 -0.033350576 0.24320132 0.033514533 0.11827056 0.025120357 -0.4702096 -0.080439486
-0.06092715 -0.16821317 0.053671643 0.023196941 -0.26103473 0.10244663 -0.47015604 0.05571207
00000000: 3a6c 0cbe 6bc5 aabd e6a5 ffbd 1ce6 3d3e
00000010: 62b9 a3be d4c5 f3be 9b3d 00be 94b8 103e
00000020: de98 313e ce30 b43d 9819 64be e6ff 613e
00000030: a673 d93d 3e26 7bbe fdb0 533d 6d56 aa3d
00000040: 99e5 c6be ddf1 60be 3da2 70bc 396d 50be
00000050: 673a dfbd ac8b 303e 0e43 7a3e 4ad0 9ebd
00000060: c21f 903e 01e4 a63d 29d4 78bd 78b8 5b3e
00000070: 14bf 70be b3f0 72bd b40c d43d dec3 3fbe
00000080: 29f1 343e 6739 9abd b8b0 a73c 6e2e 5fbe
00000090: 7c92 d43d c2e5 0f3e 4ed8 3ebd be7a 94bd
000000a0: 6b64 473e e2a2 513e b5a3 193d a8ab 7dbe
000000b0: ca56 d8bd 9de7 39be 24ec 4fbe 92b1 55be
000000c0: 607f 69bd 09fd 033e adcd a3be 6428 033e
000000d0: 330f 163d 10a7 c83d e4a5 a3bc 7b98 b73d
000000e0: 4e4f ca3d 7e80 47be 097b 0abe b4ec 6f3e
000000f0: b80e d83d 4dc3 eebd 79c6 e63d c9ab 6bbe
00000100: 9154 3dbe 45a4 ddbc 92ba 79be e71b a6bc
00000110: 3ecb 59be 3db9 dfbe be2d 433d f1f6 7bbd
00000120: 7814 66bd dd33 653e 0076 2c3e 6540 1fbe
00000130: 49f6 1e3e c0f6 20bd a138 75be 23a9 b83d
00000140: ce55 9ebe c775 14be f6ff 65be dfe3 9e3e
00000150: 87f1 99bd dff0 2cbe 2b5a 14be 0cd9 5cbd
00000160: f0d0 5b3c 93ff f2bd 41ca 9cbe 53f7 973d
00000170: ed2b edbd 676b 073e f0d9 043e 752d 0cbe
00000180: 69ab f13d 455b 02be 260a c1bd 594b 8dbe
00000190: 6379 0b3e 9976 6fbc 3312 4abe 5f6e 0b3e
000001a0: 507e ce3d 0b21 4f3e 3dc9 0dbd afcc 7d3e
000001b0: a013 96bd 4fef 033e e237 f53c 0984 753b
000001c0: 51b8 3fbd ce67 e5bc 47b8 6bbe 9fe7 8bbd
000001d0: 70d4 243e e645 27be 4d58 aebc 651a 07be
000001e0: 46cf 15be 58f3 543e ff90 3dbe 77d7 193a
000001f0: 7e6a 44be f298 89be 7fea 2b3e 501e cbbe
00000200: c9d3 28be 481a 02be 9bc9 4f3e f452 12bd
00000210: 19da 033d bfc9 8f3e 565f 98bd a4ac a03d
00000220: 94c1 10be f512 c03d 2e03 09bd e940 a13c
00000230: 1e54 be3d 703f 63bd ab2e 75be 5102 edbe
00000240: 8714 793e f4d2 5cbe 8d58 54be c93e 493c
00000250: e8fd 2abe 26f6 2bbe 2035 1bbd 1abf f53d
00000260: 62d1 613e bc70 11be d847 a7bd 99a5 86be
00000270: cb65 84be 65a3 e8bd c29d ee3d ee7b 07be
00000280: 838e 2c3e eb10 c7bd 2cc8 20be 15fe 1cbd
00000290: 15db 86be f109 febd f835 3f3d 64b2 0ebe
000002a0: 5189 0f3d 4325 ccbc 9780 94bd 0cf4 083e
000002b0: bc1b 07be 0b10 84be c990 cbbc d668 3e3e
000002c0: 594d 0cbe eaf2 983d 2a45 153e 3e68 5bbd
000002d0: b8e9 19bd b562 e43c e23e 35be 2c8a 2d3e
000002e0: 2bb6 183d e1a7 76be 015e 8b3b c3da 183d
000002f0: 7966 2bbe 6f52 1b3d 5cf9 9ebe ee2e 0b3d
00000300: b821 54bd 886d 02be 66bb a1bd 6ee8 aabc
00000310: 0d21 65bd b1b7 7b3e 94ed 5bbe 3fc7 263e
00000320: a86f bdbd 0dd2 e23d afd3 a83d e047 303d
00000330: a0cb 5cbd 968c 0d3e eee8 0dbe e84d d9be
00000340: aec7 723e 7c11 a1bc a6d8 52be 8f71 6f3d
00000350: b302 6ebd 3764 333e 1460 c53d 49ea b0be
00000360: c736 0e3e 14ab 3fbe 013e 0b3e de5b 2dbe
00000370: 5a4b 5bbe 5544 1dbe 089b f53d d14a 31be
00000380: 8fab a0ba 45f8 05be 951e dbbd 9dcf 3b3e
00000390: 0ed0 14be a410 2d3e 67ed 27bd ee25 f8bd
000003a0: 15b8 c1bd 7d31 a2bd 184b 80bc fec9 163d
000003b0: 3ce5 b5bd 764d 88be 3a12 34bd 9a7d 613e
000003c0: 5ad5 92bd 9d9a 08bd c409 793e 8946 093d
000003d0: d637 f23d 35c9 cd3c 50bf f0be 75bd a4bd
000003e0: bf8e 79bd 1340 2cbe ccd6 5b3d 8307 be3c
000003f0: 58a6 85be 8acf d13d 4bb8 f0be 5732 643d

sequential/dense_1/BiasAdd/ReadVariableOp f4 [6]
0.22639875 -0.26174432 0.05461831 -0.049837712 0.006164034 -0.081277564
00000000: 13d5 673e 5a03 86be 73b7 5f3d a122 4cbd
00000010: aafb c93b da74 a6bd

sequential/dense/BiasAdd/ReadVariableOp f4 [64]
-0.10816905 -0.28943765 -0.122354046 -0.12758389 0.042354915 0.15029651 -0.2617933 -0.036414877
-0.11630841 -0.035799205 -0.110297345 -0.09816501 -0.04389513 -0.0580074 -0.053889804 0.015424291
0.16450515 -0.14425291 -0.197904 -0.17227782 -0.17487137 -0.11725101 -0.058324985 -0.045134887
-0.09823801 -0.018471718 -0.07402848 -0.114712074 -0.1841121 -0.13966459 -0.23659857 -0.09381753
-0.008344585 -0.037681613 -0.1541703 -0.086842574 -0.18295449 -0.075632356 0.015887724 -0.21434616
0.013403011 -0.16566849 -0.088780314 -0.01667803 -0.1643967 -0.2684918 -0.3221311 -0.032283608
-0.13174823 0.013926069 0.0059497682 -0.13291013 -0.073410384 0.015137008 -0.08619453 -0.063599244
-0.11589904 -0.21474198 -0.065730974 -0.17349617 0.016397879 -0.15576588 -0.11168266 -0.029210314
00000000: bc87 ddbd 2c31 94be c294 fabd 5aa5 02be
00000010: 597c 2d3d 54e7 193e c509 86be c427 15bd
00000020: 1b33 eebd 30a2 12bd 93e3 e1bd bd0a c9bd
00000030: 61cb 33bd 2b99 6dbd 8ebb 5cbd 2ab6 7c3c
00000040: 0a74 283e 09b7 13be 59a7 4abe 9969 30be
00000050: 7b11 33be 4c21 f0bd 2ee6 6ebd 5cdf 38bd
00000060: 0331 c9bd 0052 97bc 3e9c 97bd 2aee eabd
00000070: e287 3cbe 3c04 0fbe e546 72be 6823 c0bd
00000080: bab7 08bc 0958 1abd d2de 1dbe 85da b1bd
00000090: 6c58 3bbe 23e5 9abd f926 823c 8f7d 5bbe
000000a0: 4d98 5b3c 00a5 29be 74d2 b5bd 5da0 88bc
000000b0: 9c57 28be c277 89be 5eee a4be d13b 04bd
000000c0: 02e9 06be 2b2a 643c 46f6 c23b 9819 08be
000000d0: 2f58 96bd 3701 783c c286 b0bd 5240 82bd
000000e0: 7a5c edbd 52e5 5bbe f69d 86bd fba8 31be
000000f0: d854 863c 1781 1fbe e1b9 e4bd 784a efbc

sequential/batch_normalization_1/batchnorm/mul f4 [64]
1.5023632 3.0103593 3.0131125 3.8407006 1.1145782 1.9511477 2.6172357 2.5125363
0.9066119 1.2964685 1.7114662 1.3731377 1.7284917 8.346025 0.93150115 1.1699036
1.1749412 2.2712708 1.3296382 2.1657693 6.3406506 2.9620044 2.1477523 1.2760866
2.613202 1.7464721 1.1486427 1.0718569 3.062383 2.7609272 2.1748571 8.86696
1.8827684 1.8094159 1.6999247 2.215329 1.2645435 1.4124389 1.7780935 2.262422
2.3172653 1.6501578 3.5051286 1.0451461 1.2424144 2.3366828 2.254829 1.5220792
2.8241708 1.2375268 2.5944343 1.3497452 1.9193566 2.0440812 1.7047278 2.5428393
3.6436095 1.3212332 2.2282865 1.4160852 2.0729454 1.6641259 1.7443024 1.7845
00000000: 704d c03f baa9 4040 d6d6 4040 0ace 7540
00000010: 80aa 8e3f 35bf f93f ca80 2740 65cd 2040
00000020: b817 683f aef2 a53f 5311 db3f fac2 af3f
00000030: 373f dd3f 5289 0541 dc76 6e3f 67bf 953f
00000040: 7964 963f 805c 1140 9631 aa3f f79b 0a40
00000050: 9ce6 ca40 7b91 3d40 c674 0940 ce56 a33f
00000060: b43e 2740 668c df3f b906 933f 9b32 893f
00000070: 15fe 4340 08b3 3040 dc30 0b40 11df 0d41
00000080: 8efe f03f f19a e73f 2297 d93f f3c7 0d40
00000090: 90dc a13f ccca b43f 9198 e33f 86cb 1040
000000a0: 134e 1440 5f38 d33f 0754 6040 59c7 853f
000000b0: 6f07 9f3f 368c 1540 1e4f 1040 7ed3 c23f
000000c0: 37bf 3440 4767 9e3f 360b 2640 73c4 ac3f
000000d0: 7aad f53f 3ad2 0240 8534 da3f e1bd 2240
000000e0: e630 6940 2b1e a93f 3f9c 0e40 4842 b53f
000000f0: 23ab 0440 1402 d53f 4d45 df3f 7f6a e43f

sequential/batch_normalization_1/batchnorm/sub f4 [64]
-0.34035394 -0.5134884 -0.13418967 -0.10006304 -0.20819448 -0.64858836 -0.45742658 -0.45105666
-0.050672412 -0.5357507 -0.38122544 -0.40313947 -0.0922382 -1.1808393 -0.09852344 -0.40107968
-0.14808317 -0.20530243 -0.1208072 -0.4572304 -0.16729452 -0.3935359 -0.55273443 -0.79829067
-0.6099172 -0.66850513 -0.7970078 -0.32769978 -0.3996784 -0.45899892 -0.5162049 -0.8667123
-0.36912704 -0.21606159 -0.552182 -0.34328097 -0.063875005 -0.2522152 -0.56345713 -0.8017458
-0.22316688 -0.5024413 -0.78117317 -0.41467834 -0.5453817 -0.25253242 -0.11569266 -0.73813
-0.3942698 -0.34739575 -0.5058152 -0.4425965 -0.24702126 -0.19474909 -0.2036272 -0.066522196
-0.5102751 -0.6084827 -0.12264923 -0.39715725 -0.2237891 -0.4152421 -0.20180799 -0.5119742
00000000: df42 aebe fa73 03bf 0469 09be daed ccbd
00000010: ef30 55be e309 26bf d133 eabe e6f0 e6be
00000020: e08d 4fbd f526 09bf fb2f c3be 4c68 cebe
00000030: 62e7 bcbd be25 97bf a8c6 c9bd 515a cdbe
00000040: 1da3 17be cd3a 52be c469 f7bd 1a1a eabe
00000050: 414f 2bbe 8a7d c9be 0180 0dbf c75c 4cbf
00000060: 8923 1cbf 2723 2bbf b408 4cbf 44c8 a7be
00000070: a6a2 ccbe e801 ebbe 0126 04bf dbe0 5dbf
00000080: 38fe bcbe 403f 5dbe cd5b 0dbf 86c2 afbe
00000090: e6d0 82bd 5a22 81be ba3e 10bf 363f 4dbf
000000a0: dc85 64be fe9f 00bf f7fa 47bf b850 d4be
000000b0: 239e 0bbf ee4b 81be 46f0 ecbd 16f6 3cbf
000000c0: bbdd c9be dbdd b1be 1b7d 01bf 029c e2be
000000d0: 24f3 7cbe 4e6c 47be a683 50be ca3c 88bd
000000e0: 64a1 02bf 86c5 1bbf 852f fbbd 3258 cbbe
000000f0: f828 65be 9d9a d4be c1a6 4ebe be10 03bf

sequential/batch_normalization/batchnorm/mul f4 [32]
2.914162 3.5213907 1.9937711 2.5899248 3.2671642 3.7541928 2.4230008 1.883865
3.3128471 3.7609506 1.8749804 2.6927872 1.8870898 2.3058016 2.1393073 3.2606807
5.5608244 2.0985672 2.082589 3.8261704 2.9960604 2.0849206 2.3458934 2.9044774
2.7104838 2.8869464 3.3909643 2.5925465 1.7803038 3.4452434 2.8521466 3.2669175
00000000: a181 3a40 775e 6140 e433 ff3f 54c1 2540
00000010: 3819 5140 b244 7040 7212 1b40 7d22 f13f
00000020: b005 5440 6ab3 7040 5cff ef3f a056 2c40
00000030: 298c f13f 4192 1340 69ea 0840 feae 5040
00000040: 46f2 b140 ed4e 0640 2349 0540 fadf 7440
00000050: 74bf 3f40 576f 0540 1e23 1640 f5e2 3940
00000060: 9178 2d40 bbc3 3840 8f05 5940 48ec 2540
00000070: ffe0 e33f de7e 5c40 9289 3640 2d15 5140

sequential/batch_normalization/batchnorm/sub f4 [32]
-0.06448984 -0.6903399 -0.27713972 -0.2449791 -0.26474422 -0.17464924 -0.33854932 -0.2633841
-0.15419082 -0.22759427 -0.29097426 -0.40431288 -0.27854037 -0.13002467 -0.20183668 -0.38750663
-0.04338281 -0.40518662 -0.26499867 -0.32112682 -0.42738235 -0.18013042 -0.4071263 -0.18010285
-0.51171726 -0.26248825 -0.43556654 -0.37541083 -0.44461322 -0.3720716 -0.3864688 -0.31693727
00000000: 4013 84bd 1eba 30bf 42e5 8dbe cddb 7abe
00000010: 8e8c 87be 40d7 32be 5656 adbe 48da 86be
00000020: 33e4 1dbe 790e 69be 94fa 94be 1902 cfbe
00000030: d89c 8ebe 3025 05be 46ae 4ebe 4567 c6be
00000040: 2cb2 31bd 9f74 cfbe e8ad 87be bc6a a4be
00000050: dcd1 dabe 1c74 38be dc72 d0be e26c 38be
00000060: e7ff 02bf dc64 86be 9402 dfbe d935 c0be
00000070: 58a4 e3be 2b80 bebe 3ddf c5be 9a45 a2be

sequential/conv1d/BiasAdd/ReadVariableOp f4 [32]
0.01876336 0.080508105 0.0006411646 -0.0038953885 -0.002321138 -0.11205809 -0.0030706048 -0.0044532344
0.01974137 0.0034743648 0.019901076 0.00807418 0.0024969073 -0.045932345 -0.17728306 0.0062655183
-0.1290921 -0.00865323 -0.007500507 0.0138362795 0.0047747386 -0.006936808 0.1030897 0.09141267
0.007578263 -0.10942018 0.011102344 0.01878485 0.056673866 0.11015679 0.0048003825 0.113950014
00000000: 9eb5 993c 6fe1 a43d d413 283a c649 7fbb
00000010: 3c1e 18bb b67e e5bd 333c 49bb 70ec 91bb
00000020: a7b8 a13c 2bb2 633b 9507 a33c 9149 043c
00000030: 27a3 233b 8e23 3cbd b189 35be fa4e cd3b
00000040: b830 04be 47c6 0dbc d0c6 f5bb 90b1 623c
00000050: 6975 9c3b 2a4e e3bb b120 d33d 9136 bb3d
00000060: 1453 f83b b017 e0bd 9be6 353c b0e2 993c
00000070: db22 683d e299 e13d 874c 9d3b a05e e93d

sequential/conv1d_1/BiasAdd/ReadVariableOp f4 [64]
0.023906274 -0.048580967 -0.31626585 -0.32738066 0.0011793252 -0.05729701 -0.02256002 -0.081408374
-0.27361193 0.05477525 0.061376903 0.026480166 -0.3852106 -0.38394627 -0.30403152 0.030598992
-0.50020146 -0.67835456 -0.26597196 -0.14008576 -0.29988578 -0.0004359843 -0.009787376 0.05657767
-0.071014725 -0.022877472 0.042940527 0.045014784 0.025769772 -0.05449683 -0.18143159 -0.14115277
-0.17298222 -0.13824292 -0.021106381 -0.016882647 -0.24991365 -0.5614055 -0.05050821 -0.13127245
-0.032564282 -0.1161396 -0.06453227 0.122058496 -0.0406143 -0.46508574 -0.6671977 0.014037505
-0.037910953 -0.05913551 -0.07030952 0.03472419 -0.4161648 -0.31832993 -0.100160405 -0.26622272
-0.112153396 -0.10394871 -0.24637392 -0.064710535 -0.5182083 -0.0909438 -0.16067524 -0.038840804
00000000: 17d7 c33c d6fc 46bd 99ed a1be 709e a7be
00000010: 9693 9a3a 45b0 6abd cbcf b8bc 6fb9 a6bd
00000020: dd16 8cbe 035c 603d 5966 7b3d efec d83c
00000030: 533a c5be 9b94 c4be 05aa 9bbe bdaa fa3c
00000040: 340d 00bf a5a8 2dbf 7a2d 88be a472 0fbe
00000050: a18a 99be d294 e4b9 3b5b 20bc fdbd 673d
00000060: 2b70 91bd 8969 bbbc 68e2 2f3d 6c61 383d
00000070: 211b d33c 1138 5fbd 34c9 39be 5a8a 10be
00000080: 4022 31be 8d8f 0dbe 4ae7 acbc 7a4d 8abc
00000090: 5de9 7fbe 45b8 0fbf b2e1 4ebd 496c 06be
000000a0: 2062 05bd 99da edbd 7f29 84bd cef9 f93d
000000b0: 2e5b 26bd b81f eebe 78cd 2abf 90fd 653c
000000c0: 8448 1bbd 1438 72bd 70fe 8fbd f43a 0e3d
000000d0: 8d13 d5be 24fc a2be e620 cdbd 584e 88be
000000e0: aeb0 e5bd 10e3 d4bd 7249 7cbe f586 84bd
000000f0: 4da9 04bf be40 babd 0d88 24be 8917 1fbd

sequential/conv1d/Conv1D f4 [32, 1, 3, 6]
-0.032615922 0.0047846534 -0.0048351265 -0.03647296 -0.17365426 0.017143767 -0.013047389 0.23057647
-0.12273171 0.08120548 -0.07922883 -0.16820443 -0.2739419 -0.061726723 0.14360127 0.18389842
0.16699113 -0.14025553 0.15272221 0.06418116 0.18481782 0.15564919 -0.016111266 0.10806526
0.045232553 0.12962326 0.27697125 -0.22595757 0.059644684 -0.30149785 0.015756806 0.26217252
0.25017843 0.19259655 -0.003546252 0.10800201 0.09751798 -0.32827437 0.23163122 0.14295486
-0.13257341 0.13280265 -0.16236238 0.1287075 -0.09687592 -0.115794785 -0.23741023 -0.06306986
0.19267248 -0.09165652 -0.21706817 0.20288198 -0.28617033 -0.080556914 0.2772665 0.070489965
-0.1280714 0.20440847 0.25539637 0.07113805 0.3376497 -0.20127653 -0.3260414 -0.14218454
-0.05575321 -0.11624982 0.32722533 -0.11304007 -0.34646994 0.19933444 0.18851689 0.11457048
0.25577104 -0.25832406 0.10745656 -0.24634571 -0.14433177 0.1456627 0.009424823 -0.0013448714
-0.17547266 -0.017377706 0.1165916 -0.03693199 -0.16101146 0.11580049 -0.25075066 0.14180112
-0.30372372 -0.04613708 0.022262096 0.076584235 0.07073294 0.032470897 0.20249134 -0.15383129
0.01794163 -0.06448679 0.10230184 -0.12159706 -0.011105672 0.016846154 -0.43295798 -0.02852879
0.0072333924 0.18015572 0.19087736 -0.09726969 0.01206454 -0.30638632 -0.17627332 -0.012014772
-0.24366173 -0.045668304 0.11544305 0.16348669 0.11048846 -0.19371209 0.0039843945 -0.026312247
-0.0033296417 0.056442175 -0.24208844 -0.10946849 -0.36538333 0.04008642 0.12906078 0.14296795
0.082406476 0.04150366 -0.29605383 -0.18444978 -0.06924927 0.18197574 -0.11823638 0.21747705
0.00019191156 -0.0144874845 -0.0975297 0.13320537 -0.23556106 -0.004129207 -0.2168441 0.08436001
-0.15771675 -0.11196408 -0.16618806 0.122751065 0.17010672 -0.15685779 -0.14395197 -0.1166682
0.26198667 -0.03707653 -0.007196991 0.13497888 0.34980202 0.28555277 -0.09864725 0.06756471
0.042998977 0.17283577 0.13179797 -0.1798984 0.26616025 -0.22002824 0.12534612 -0.24695905
-0.3177926 0.14765559 0.21904029 0.07646949 -0.11954128 -0.11547855 -0.2911881 0.122335404
0.22131567 0.07698371 -0.054197185 0.24854335 0.26183555 0.05242061 -0.035955865 -0.080420576
-0.14768994 -0.2969311 -0.024879606 0.15085284 0.12598637 -0.09747681 0.12437991 -0.35216147
-0.06188763 0.2651581 -0.030798214 0.20317353 -0.11665843 -0.3024125 0.054748233 -0.7412181
0.23453434 0.00949258 -0.04319461 -0.12829502 0.034754455 -0.435824 -0.20231211 -0.033300284
-0.06236767 0.05895089 -0.12661994 -0.5285525 -0.13898598 0.0603914 0.10965359 0.08995734
-0.07356495 -0.078427345 0.050212216 -0.011155734 0.15218066 -0.13068105 0.10101719 -0.15081161
-0.21892089 -0.14269298 0.22528324 -0.15392362 0.27754173 -0.0013442406 0.21184173 -0.02303836
0.26233834 0.15380853 -0.09929182 0.06661039 0.21997418 0.1252781 -0.19595017 0.023069218
0.02758871 -0.011939547 0.24255066 0.0370284 -0.21390702 0.017458098 0.047381196 0.20053224
-0.20168883 -0.19540356 -0.12049614 0.09412613 0.20406258 0.04439843 0.09115091 -0.106140874
00000000: 4698 05bd 95c8 9c3b fb6f 9ebb ac64 15bd
00000010: 6cd2 31be 1671 8c3c b7c4 55bc 3d1c 6c3e
00000020: c35a fbbd 0f4f a63d ba42 a2bd c83d 2cbe
00000030: 1d42 8cbe 29d5 7cbd 360c 133e de4f 3c3e
00000040: b9ff 2a3e 259f 0fbe 3663 1c3e 6971 833d
00000050: e240 3d3e 8062 1f3e c6fb 83bc 5251 dd3d
00000060: c545 393d f6bb 043e 2dcf 8d3e 6c61 67be
00000070: fc4d 743d ed5d 9abe 6b14 813c 7a3b 863e
00000080: 6317 803e 0838 453e 3c68 68bb 2830 dd3d
00000090: 82b7 c73d 9413 a8be bc30 6d3e c262 123e
000000a0: 53c1 07be 6bfd 073e 5342 26be e6cb 033e
000000b0: e266 c6bd d125 edbd ab1b 73be c52a 81bd
000000c0: ef4b 453e 6ab6 bbbd 1e47 5ebe 4bc0 4f3e
000000d0: eb84 92be 06fb a4bd e0f5 8d3e 0b5d 903d
000000e0: 2625 03be 7450 513e 50c3 823e d3b0 913d
000000f0: 6ce0 ac3e 6f1b 4ebe e6ee a6be d398 11be
00000100: 7a5d 64bd 6314 eebd 148a a73e 8d81 e7bd
00000110: 8264 b1be 541e 4c3e 920a 413e eea3 ea3d
00000120: 6cf4 823e 0d43 84be 2f12 dc3d 0d42 7cbe
00000130: b5cb 13be 9a28 153e 936a 1a3c 6546 b0ba
00000140: 1baf 33be b15b 8ebc 94c7 ee3d 0046 17bd
00000150: 30e0 24be cf28 ed3d 6462 80be 5034 113e
00000160: ad81 9bbe 3cfa 3cbd 005f b63c 32d8 9c3d
00000170: 6fdc 903d 3400 053d e459 4f3e f385 1dbe
00000180: 53fa 923c a611 84bd a183 d13d e107 f9bd
00000190: 91f4 35bc f200 8a3c abac ddbe 36b5 e9bc
000001a0: 1806 ed3b be7a 383e 5b75 433e 5535 c7bd
000001b0: 59aa 453c abde 9cbe fe80 34be 9bd9 44bc
000001c0: 7682 79be b00e 3bbd 686d ec3d 0e69 273e
000001d0: c647 e23d 765c 46be 868f 823b c88c d7bc
000001e0: 1e36 5abb e92f 673d 08e6 77be 0431 e0bd
000001f0: 8613 bbbe a831 243d 8228 043e 3166 123e
00000200: bac4 a83d beff 293d 5e94 97be 67e0 3cbe
00000210: 90d2 8dbd d957 3a3e ea25 f2bd 4eb2 5e3e
00000220: de3b 4939 ea5c 6dbc a7bd c7bd fd66 083e
00000230: eb36 71be 4d4e 87bb 610c 5ebe f1c4 ac3d
00000240: 8080 21be 6c4d e5bd 342d 2abe e964 fb3d
00000250: 7530 2e3e 549f 20be 2568 13be bdef eebd
00000260: 1e23 863e 8fdd 17bd bcd4 ebbb e737 0a3e
00000270: 4019 b33e f933 923e 9207 cabd 5e5f 8a3d
00000280: b21f 303d dcfb 303e 0cf6 063e 4937 38be
00000290: 2846 883e 154f 61be bc5a 003e d5e2 7cbe
000002a0: b6b5 a2be 0733 173e 194c 603e 099c 9c3d
000002b0: 0fd2 f4bd 0580 ecbd 9b16 95be fc8a fa3d
000002c0: 93a0 623e a3a9 9d3d defd 5dbd 2682 7e3e
000002d0: 4f0f 863e feb6 563d 7546 13bd 8bb3 a4bd
000002e0: 083c 17be 5a07 98be 51d0 cbbc 2b79 1a3e
000002f0: 9202 013e eca1 c7bd e5ba fe3d 824e b4be
00000300: e27d 7dbd cdc2 873e 894c fcbc b90c 503e
00000310: 9dea eebd d0d5 9abe af3f 603d 78c0 3dbf
00000320: c529 703e c486 1b3c d5ec 30bd c55f 03be
00000330: b05a 0e3d 5324 dfbe e82a 4fbe e165 08bd
00000340: 3e75 7fbd 7d76 713d a8a8 01be 374f 07bf
00000350: 5752 0ebe f95c 773d 1092 e03d 8e3b b83d
00000360: 38a9 96bd 849e a0bd 53ab 4d3d 8ac6 36bc
00000370: 3fd5 1b3e 41d1 05be 1ae2 ce3d 5c6e 1abe
00000380: cc2c 60be 1c1e 12be a6b0 663e 279e 1dbe
00000390: f319 8e3e 3b31 b0ba 0aed 583e f1ba bcbc
000003a0: 3651 863e fc7f 1d3e 8259 cbbd 076b 883d
000003b0: e940 613e e748 003e 29a7 48be a8fb bc3c
000003c0: b801 e23c 179e 43bc 335f 783e 17ab 173d
000003d0: 710a 5bbe 4904 8f3c c912 423d 5358 4d3e
000003e0: 8487 4ebe df17 48be aec6 f6bd 33c5 c03d
000003f0: c8f5 503e 21db 353d 54ad ba3d 6360 d9bd

sequential/conv1d_1/Conv1D i1 [64, 1, 3, 32]
-9 25 72 80 -41 33 21 44
46 -97 -46 31 -19 45 -61 15
-13 61 34 -19 -85 -51 -26 -8
6 11 22 -1 39 22 20 -17
42 20 64 21 30 61 20 51
-18 -120 40 -38 10 -73 -29 -10
-105 -33 -61 -9 -45 -47 23 -39
5 50 -60 -78 -23 35 -58 -35
46 -28 45 -67 -127 15 -29 -32
-8 -21 61 35 70 16 72 46
-34 -42 15 -15 -2 55 -75 10
-10 -51 -14 -12 49 64 -54 23
-81 -80 -14 -8 76 -17 21 -65
-9 -31 -12 -75 15 -100 -29 18
-10 -66 49 -68 45 26 18 -86
-7 -40 50 -53 -12 -28 53 -79
6 -46 -3 -34 -43 -22 56 24
60 -4 -100 -87 -18 -35 -19 -21
-83 -79 45 6 38 -65 -25 -31
-16 19 52 64 7 -31 52 -38
-7 7 6 68 62 49 36 -10
59 29 -81 -127 1 -9 -60 -12
-28 -64 64 -25 51 4 1 6
-88 16 63 -30 42 -23 17 -35
-56 71 -7 47 -29 -30 43 -12
-22 53 -8 83 -61 -60 -26 15
-25 11 85 55 -90 71 60 -41
99 -92 80 -10 -79 -24 95 -82
-51 83 -38 52 -31 -81 3 41
-30 -38 -96 3 -102 -12 -22 -98
21 52 -26 15 -11 -62 12 29
35 -43 -28 -59 -53 35 -60 20
00000000: f719 4850 d721 152c 2e9f d21f ed2d c30f
00000010: f33d 22ed abcd e6f8 060b 16ff 2716 14ef
00000020: 2a14 4015 1e3d 1433 ee88 28da 0ab7 e3f6
00000030: 97df c3f7 d3d1 17d9 0532 c4b2 e923 c6dd
00000040: 2ee4 2dbd 810f e3e0 f8eb 3d23 4610 482e
00000050: ded6 0ff1 fe37 b50a f6cd f2f4 3140 ca17
00000060: afb0 f2f8 4cef 15bf f7e1 f4b5 0f9c e312
00000070: f6be 31bc 2d1a 12aa f9d8 32cb f4e4 35b1
00000080: 06d2 fdde d5ea 3818 3cfc 9ca9 eedd edeb
00000090: adb1 2d06 26bf e7e1 f013 3440 07e1 34da
000000a0: f907 0644 3e31 24f6 3b1d af81 01f7 c4f4
000000b0: e4c0 40e7 3304 0106 a810 3fe2 2ae9 11dd
000000c0: c847 f92f e3e2 2bf4 ea35 f853 c3c4 e60f
000000d0: e70b 5537 a647 3cd7 63a4 50f6 b1e8 5fae
000000e0: cd53 da34 e1af 0329 e2da a003 9af4 ea9e
000000f0: 1534 e60f f5c2 0c1d 23d5 e4c5 cb23 c414

sequential/dense/MatMul i1 [64, 1472] scale=0.0026616775 zero_point=0
-0.09582039 -0.047910195 -0.050571874 0.04524852 0.007985033 0.013308387 -0.13308388 -0.08783536
-0.09582039 0.018631743 0.111790456 -0.17034736 0.06654194 -0.058556907 -0.082512006 0.07985032
-0.10380542 -0.111790456 0.04258684 -0.058556907 -0.04524852 -0.013308387 0.23955098 -0.09848207
0.09049704 -0.023955097 -0.13840723 0.07186529 0.082512006 -0.013308387 -0.16236234 0.058556907
-0.1410689 -0.031940132 -0.050571874 -0.05323355 -0.037263487 0.0026616775 -0.018631743 -0.13840723
0.005323355 -0.11977549 -0.015970066 -0.034601808 -0.22358091 -0.005323355 -0.013308387 -0.21825756
-0.12776053 0.06654194 0.06654194 0.0 0.063880265 -0.018631743 -0.037263487 -0.18631743
-0.069203615 0.01064671 -0.069203615 0.029278453 -0.07985032 -0.17034736 -0.06654194 0.1304222
-0.037263487 0.0026616775 0.031940132 0.034601808 0.050571874 0.09848207 0.005323355 0.082512006
0.047910195 -0.058556907 0.047910195 -0.07186529 -0.037263487 0.13574556 0.05323355 0.023955097
-0.031940132 0.082512006 0.12509884 -0.058556907 0.023955097 0.026616774 -0.09049704 0.06654194
0.09582039 0.15970065 -0.050571874 -0.02129342 0.0 0.17833239 -0.047910195 0.10114375
-0.19696414 -0.013308387 -0.007985033 0.023955097 -0.02129342 0.10912878 -0.05323355 -0.1304222
-0.029278453 0.055895228 0.013308387 -0.04258684 -0.093158714 -0.005323355 -0.031940132 -0.18099408
0.03992516 0.005323355 0.0 -0.007985033 0.055895228 0.0 -0.1304222 0.04258684
0.01064671 -0.09848207 -0.005323355 0.10912878 0.02129342 -0.14905395 0.037263487 0.058556907
-0.029278453 -0.15171562 0.023955097 0.050571874 0.03992516 0.023955097 -0.21027252 0.09848207
-0.07718865 -0.026616774 0.07985032 -0.17567071 0.023955097 0.031940132 0.018631743 0.04258684
-0.031940132 -0.04524852 0.07985032 -0.1410689 -0.007985033 -0.0026616775 0.029278453 -0.01064671
0.04524852 0.04258684 -0.09582039 0.11445213 0.14639227 0.061218582 0.050571874 0.034601808
-0.093158714 0.07718865 0.07985032 0.01064671 0.013308387 0.005323355 -0.055895228 0.005323355
-0.04258684 -0.013308387 -0.005323355 -0.1304222 -0.1304222 0.07186529 -0.117113814 -0.11445213
-0.058556907 -0.031940132 -0.09049704 0.122437164 0.08517368 0.05323355 -0.047910195 0.122437164
-0.007985033 -0.058556907 0.07718865 0.10380542 0.1064671 -0.13308388 -0.007985033 0.023955097
-0.015970066 -0.055895228 0.01064671 0.03992516 -0.06654194 0.09049704 -0.026616774 0.07186529
-0.04258684 0.058556907 -0.007985033 -0.14639227 0.015970066 0.122437164 0.117113814 0.03992516
0.04524852 0.034601808 0.03992516 -0.13308388 -0.013308387 0.034601808 -0.069203615 0.026616774
0.08783536 0.1064671 -0.03992516 0.023955097 0.023955097 0.15703897 -0.058556907 -0.007985033
-0.07452697 -0.007985033 0.018631743 -0.04524852 0.015970066 0.04524852 -0.27947614 -0.05323355
-0.050571874 0.05323355 -0.037263487 -0.10380542 -0.1304222 -0.0026616775 -0.018631743 -0.015970066
-0.029278453 0.005323355 -0.082512006 -0.007985033 0.015970066 0.08783536 -0.10114375 0.117113814
-0.07985032 -0.063880265 0.037263487 0.034601808 0.0026616775 -0.03992516 -0.06654194 0.031940132
00000000: dcee ed11 0305 cedf dc07 2ac0 19ea e11e
00000010: d9d6 10ea effb 5adb 22f7 cc1b 1ffb c316
00000020: cbf4 edec f201 f9cc 02d3 faf3 acfe fbae
00000030: d019 1900 18f9 f2ba e604 e60b e2c0 e731
00000040: f201 0c0d 1325 021f 12ea 12e5 f233 1409
00000050: f41f 2fea 090a de19 243c edf8 0043 ee26
00000060: b6fb fd09 f829 eccf f515 05f0 ddfe f4bc
00000070: 0f02 00fd 1500 cf10 04db fe29 08c8 0e16
00000080: f5c7 0913 0f09 b125 e3f6 1ebe 090c 0710
00000090: f4ef 1ecb fdff 0bfc 1110 dc2b 3717 130d
000000a0: dd1d 1e04 0502 eb02 f0fb fecf cf1b d4d5
000000b0: eaf4 de2e 2014 ee2e fdea 1d27 28ce fd09
000000c0: faeb 040f e722 f61b f016 fdc9 062e 2c0f
000000d0: 110d 0fce fb0d e60a 2128 f109 093b eafd
000000e0: e4fd 07ef 0611 97ec ed14 f2d9 cfff f9fa
000000f0: f502 e1fd 0621 da2c e2e8 0e0d 01f1 e70c
